…
evaluation = dict(interval=240000, metric='mIoU')
lr_config = dict(
    policy='poly',
    power=0.9,
    min_lr=1e-06,
    warmup='linear',
    warmup_iters=1500,
    warmup_ratio=1e-06,
    by_epoch=False)
loss_decode = dict(type='DiceLoss', use_sigmoid=True, loss_weight=1.0)
work_dir = './work_dirs/segnav_cfg'
gpu_ids = [0]
auto_resume = False

2024-03-30 23:02:23,259 - mmseg - INFO - Set random seed to 1370728783, deterministic: False
2024-03-30 23:02:24,603 - mmseg - INFO - EncoderDecoder(
  (backbone): MixVisionTransformer(
    (layers): ModuleList(
      (0): ModuleList(
        (0): PatchEmbed(
          (projection): Conv2d(3, 128, kernel_size=(7, 7), stride=(4, 4), padding=(3, 3))
          (norm): LayerNorm((128,), eps=1e-06, elementwise_affine=True)
        )
        (1): ModuleList(
          (0): TransformerEncoderLayer(
            (norm1): LayerNorm((128,), eps=1e-06, elementwise_affine=True)
            (attn): EfficientMultiheadAttention(
              (attn): MultiheadAttention(
                (out_proj): NonDynamicallyQuantizableLinear(in_features=128, out_features=128, bias=True)
              )
              (proj_drop): Dropout(p=0.1, inplace=False)
              (dropout_layer): DropPath()
              (sr): Conv2d(128, 128, kernel_size=(8, 8), stride=(8, 8))
              (norm): LayerNorm((128,), eps=1e-06, elementwise_affine=True)
            )
            (norm2): LayerNorm((128,), eps=1e-06, elementwise_affine=True)
            (ffn): MixFFN(
              (activate): GELU()
              (layers): Sequential(
                (0): Conv2d(128, 512, kernel_size=(1, 1), stride=(1, 1))
                (1): Conv2d(512, 512, kernel_size=(3, 3), stride=(1, 1), padding=(1, 1), groups=512)
                (2): GELU()
                (3): Dropout(p=0.1, inplace=False)
                (4): Conv2d(512, 128, kernel_size=(1, 1), stride=(1, 1))
                (5): Dropout(p=0.1, inplace=False)
              )
              (dropout_layer): DropPath()
            )
          )
          (1): TransformerEncoderLayer(
            (norm1): LayerNorm((128,), eps=1e-06, elementwise_affine=True)
            (attn): EfficientMultiheadAttention(
              (attn): MultiheadAttention(
                (out_proj): NonDynamicallyQuantizableLinear(in_features=128, out_features=128, bias=True)
              )
              (proj_drop): Dropout(p=0.1, inplace=False)
              (dropout_layer): DropPath()
              (sr): Conv2d(128, 128, kernel_size=(8, 8), stride=(8, 8))
              (norm): LayerNorm((128,), eps=1e-06, elementwise_affine=True)
            )
            (norm2): LayerNorm((128,), eps=1e-06, elementwise_affine=True)
            (ffn): MixFFN(
              (activate): GELU()
              (layers): Sequential(
                (0): Conv2d(128, 512, kernel_size=(1, 1), stride=(1, 1))
                (1): Conv2d(512, 512, kernel_size=(3, 3), stride=(1, 1), padding=(1, 1), groups=512)
                (2): GELU()
                (3): Dropout(p=0.1, inplace=False)
                (4): Conv2d(512, 128, kernel_size=(1, 1), stride=(1, 1))
                (5): Dropout(p=0.1, inplace=False)
              )
              (dropout_layer): DropPath()
            )
          )
        )
        (2): LayerNorm((128,), eps=1e-06, elementwise_affine=True)
      )
      (1): ModuleList(
        (0): PatchEmbed(
          (projection): Conv2d(128, 256, kernel_size=(3, 3), stride=(2, 2), padding=(1, 1))
          (norm): LayerNorm((256,), eps=1e-06, elementwise_affine=True)
        )
        (1): ModuleList(
          (0): TransformerEncoderLayer(
            (norm1): LayerNorm((256,), eps=1e-06, elementwise_affine=True)
            (attn): EfficientMultiheadAttention(
              (attn): MultiheadAttention(
                (out_proj): NonDynamicallyQuantizableLinear(in_features=256, out_features=256, bias=True)
              )
              (proj_drop): Dropout(p=0.1, inplace=False)
              (dropout_layer): DropPath()
              (sr): Conv2d(256, 256, kernel_size=(4, 4), stride=(4, 4))
              (norm): LayerNorm((256,), eps=1e-06, elementwise_affine=True)
            )
            (norm2): LayerNorm((256,), eps=1e-06, elementwise_affine=True)
            (ffn): MixFFN(
              (activate): GELU()
              (layers): Sequential(
                (0): Conv2d(256, 1024, kernel_size=(1, 1), stride=(1, 1))
                (1): Conv2d(1024, 1024, kernel_size=(3, 3), stride=(1, 1), padding=(1, 1), groups=1024)
                (2): GELU()
                (3): Dropout(p=0.1, inplace=False)
                (4): Conv2d(1024, 256, kernel_size=(1, 1), stride=(1, 1))
                (5): Dropout(p=0.1, inplace=False)
              )
              (dropout_layer): DropPath()
            )
          )
          (1): TransformerEncoderLayer(
            (norm1): LayerNorm((256,), eps=1e-06, elementwise_affine=True)
            (attn): EfficientMultiheadAttention(
              (attn): MultiheadAttention(
                (out_proj): NonDynamicallyQuantizableLinear(in_features=256, out_features=256, bias=True)
              )
              (proj_drop): Dropout(p=0.1, inplace=False)
              (dropout_layer): DropPath()
              (sr): Conv2d(256, 256, kernel_size=(4, 4), stride=(4, 4))
              (norm): LayerNorm((256,), eps=1e-06, elementwise_affine=True)
            )
            (norm2): LayerNorm((256,), eps=1e-06, elementwise_affine=True)
            (ffn): MixFFN(
              (activate): GELU()
              (layers): Sequential(
                (0): Conv2d(256, 1024, kernel_size=(1, 1), stride=(1, 1))
                (1): Conv2d(1024, 1024, kernel_size=(3, 3), stride=(1, 1), padding=(1, 1), groups=1024)
                (2): GELU()
                (3): Dropout(p=0.1, inplace=False)
                (4): Conv2d(1024, 256, kernel_size=(1, 1), stride=(1, 1))
                (5): Dropout(p=0.1, inplace=False)
              )
              (dropout_layer): DropPath()
            )
          )
        )
        (2): LayerNorm((256,), eps=1e-06, elementwise_affine=True)
      )
      (2): ModuleList(
        (0): PatchEmbed(
          (projection): Conv2d(256, 640, kernel_size=(3, 3), stride=(2, 2), padding=(1, 1))
          (norm): LayerNorm((640,), eps=1e-06, elementwise_affine=True)
        )
        (1): ModuleList(
          (0): TransformerEncoderLayer(
            (norm1): LayerNorm((640,), eps=1e-06, elementwise_affine=True)
            (attn): EfficientMultiheadAttention(
              (attn): MultiheadAttention(
                (out_proj): NonDynamicallyQuantizableLinear(in_features=640, out_features=640, bias=True)
              )
              (proj_drop): Dropout(p=0.1, inplace=False)
              (dropout_layer): DropPath()
              (sr): Conv2d(640, 640, kernel_size=(2, 2), stride=(2, 2))
              (norm): LayerNorm((640,), eps=1e-06, elementwise_affine=True)
            )
            (norm2): LayerNorm((640,), eps=1e-06, elementwise_affine=True)
            (ffn): MixFFN(
              (activate): GELU()
              (layers): Sequential(
                (0): Conv2d(640, 2560, kernel_size=(1, 1), stride=(1, 1))
                (1): Conv2d(2560, 2560, kernel_size=(3, 3), stride=(1, 1), padding=(1, 1), groups=2560)
                (2): GELU()
                (3): Dropout(p=0.1, inplace=False)
                (4): Conv2d(2560, 640, kernel_size=(1, 1), stride=(1, 1))
                (5): Dropout(p=0.1, inplace=False)
              )
              (dropout_layer): DropPath()
            )
          )
          (1): TransformerEncoderLayer(
            (norm1): LayerNorm((640,), eps=1e-06, elementwise_affine=True)
            (attn): EfficientMultiheadAttention(
              (attn): MultiheadAttention(
                (out_proj): NonDynamicallyQuantizableLinear(in_features=640, out_features=640, bias=True)
              )
              (proj_drop): Dropout(p=0.1, inplace=False)
              (dropout_layer): DropPath()
              (sr): Conv2d(640, 640, kernel_size=(2, 2), stride=(2, 2))
              (norm): LayerNorm((640,), eps=1e-06, elementwise_affine=True)
            )
            (norm2): LayerNorm((640,), eps=1e-06, elementwise_affine=True)
            (ffn): MixFFN(
              (activate): GELU()
              (layers): Sequential(
                (0): Conv2d(640, 2560, kernel_size=(1, 1), stride=(1, 1))
                (1): Conv2d(2560, 2560, kernel_size=(3, 3), stride=(1, 1), padding=(1, 1), groups=2560)
                (2): GELU()
                (3): Dropout(p=0.1, inplace=False)
                (4): Conv2d(2560, 640, kernel_size=(1, 1), stride=(1, 1))
                (5): Dropout(p=0.1, inplace=False)
              )
              (dropout_layer): DropPath()
            )
          )
        )
        (2): LayerNorm((640,), eps=1e-06, elementwise_affine=True)
      )
      (3): ModuleList(
        (0): PatchEmbed(
          (projection): Conv2d(640, 1024, kernel_size=(3, 3), stride=(2, 2), padding=(1, 1))
          (norm): LayerNorm((1024,), eps=1e-06, elementwise_affine=True)
        )
        (1): ModuleList(
          (0): TransformerEncoderLayer(
            (norm1): LayerNorm((1024,), eps=1e-06, elementwise_affine=True)
            (attn): EfficientMultiheadAttention(
              (attn): MultiheadAttention(
                (out_proj): NonDynamicallyQuantizableLinear(in_features=1024, out_features=1024, bias=True)
              )
              (proj_drop): Dropout(p=0.1, inplace=False)
              (dropout_layer): DropPath()
            )
            (norm2): LayerNorm((1024,), eps=1e-06, elementwise_affine=True)
            (ffn): MixFFN(
              (activate): GELU()
              (layers): Sequential(
                (0): Conv2d(1024, 4096, kernel_size=(1, 1), stride=(1, 1))
                (1): Conv2d(4096, 4096, kernel_size=(3, 3), stride=(1, 1), padding=(1, 1), groups=4096)
                (2): GELU()
                (3): Dropout(p=0.1, inplace=False)
                (4): Conv2d(4096, 1024, kernel_size=(1, 1), stride=(1, 1))
                (5): Dropout(p=0.1, inplace=False)
              )
              (dropout_layer): DropPath()
            )
          )
          (1): TransformerEncoderLayer(
            (norm1): LayerNorm((1024,), eps=1e-06, elementwise_affine=True)
            (attn): EfficientMultiheadAttention(
              (attn): MultiheadAttention(
                (out_proj): NonDynamicallyQuantizableLinear(in_features=1024, out_features=1024, bias=True)
              )
              (proj_drop): Dropout(p=0.1, inplace=False)
              (dropout_layer): DropPath()
            )
            (norm2): LayerNorm((1024,), eps=1e-06, elementwise_affine=True)
            (ffn): MixFFN(
              (activate): GELU()
              (layers): Sequential(
                (0): Conv2d(1024, 4096, kernel_size=(1, 1), stride=(1, 1))
                (1): Conv2d(4096, 4096, kernel_size=(3, 3), stride=(1, 1), padding=(1, 1), groups=4096)
                (2): GELU()
                (3): Dropout(p=0.1, inplace=False)
                (4): Conv2d(4096, 1024, kernel_size=(1, 1), stride=(1, 1))
                (5): Dropout(p=0.1, inplace=False)
              )
              (dropout_layer): DropPath()
            )
          )
        )
        (2): LayerNorm((1024,), eps=1e-06, elementwise_affine=True)
      )
    )
  )
  (decode_head): SegNavHead(
    input_transform=multiple_select, ignore_index=255, align_corners=False
    (loss_decode): CrossEntropyLoss()
    (conv_seg): Conv2d(512, 6, kernel_size=(1, 1), stride=(1, 1))
    (dropout): Dropout2d(p=0.1, inplace=False)
    (attn_c4): Block(
      (norm1): LayerNorm((1024,), eps=1e-05, elementwise_affine=True)
      (norm2): LayerNorm((2048,), eps=1e-05, elementwise_affine=True)
      (norm3): LayerNorm((1024,), eps=1e-05, elementwise_affine=True)
      (attn): CrossAttention(
        (q): Linear(in_features=1024, out_features=1024, bias=False)
        (kv): Linear(in_features=2048, out_features=2048, bias=False)
        (attn_drop): Dropout(p=0.0, inplace=False)
        (proj): Linear(in_features=1024, out_features=1024, bias=True)
        (proj_drop): Dropout(p=0.0, inplace=False)
        (pool): AvgPool2d(kernel_size=8, stride=8, padding=0)
        (sr): Conv2d(2048, 2048, kernel_size=(1, 1), stride=(1, 1))
        (norm): LayerNorm((2048,), eps=1e-05, elementwise_affine=True)
        (act): GELU()
      )
      (drop_path): DropPath(drop_prob=0.100)
      (mlp): Mlp(
        (fc1): Linear(in_features=1024, out_features=4096, bias=True)
        (dwconv): DWConv(
          (dwconv): Conv2d(4096, 4096, kernel_size=(3, 3), stride=(1, 1), padding=(1, 1), groups=4096)
        )
        (act): GELU()
        (fc2): Linear(in_features=4096, out_features=1024, bias=True)
        (drop): Dropout(p=0.0, inplace=False)
      )
    )
    (attn_c3): Block(
      (norm1): LayerNorm((640,), eps=1e-05, elementwise_affine=True)
      (norm2): LayerNorm((2048,), eps=1e-05, elementwise_affine=True)
      (norm3): LayerNorm((640,), eps=1e-05, elementwise_affine=True)
      (attn): CrossAttention(
        (q): Linear(in_features=640, out_features=640, bias=False)
        (kv): Linear(in_features=2048, out_features=1280, bias=False)
        (attn_drop): Dropout(p=0.0, inplace=False)
        (proj): Linear(in_features=640, out_features=640, bias=True)
        (proj_drop): Dropout(p=0.0, inplace=False)
        (pool): AvgPool2d(kernel_size=4, stride=4, padding=0)
        (sr): Conv2d(2048, 2048, kernel_size=(1, 1), stride=(1, 1))
        (norm): LayerNorm((2048,), eps=1e-05, elementwise_affine=True)
        (act): GELU()
      )
      (drop_path): DropPath(drop_prob=0.100)
      (mlp): Mlp(
        (fc1): Linear(in_features=640, out_features=2560, bias=True)
        (dwconv): DWConv(
          (dwconv): Conv2d(2560, 2560, kernel_size=(3, 3), stride=(1, 1), padding=(1, 1), groups=2560)
        )
        (act): GELU()
        (fc2): Linear(in_features=2560, out_features=640, bias=True)
        (drop): Dropout(p=0.0, inplace=False)
      )
    )
    (attn_c2): Block(
      (norm1): LayerNorm((256,), eps=1e-05, elementwise_affine=True)
      (norm2): LayerNorm((2048,), eps=1e-05, elementwise_affine=True)
      (norm3): LayerNorm((256,), eps=1e-05, elementwise_affine=True)
      (attn): CrossAttention(
        (q): Linear(in_features=256, out_features=256, bias=False)
        (kv): Linear(in_features=2048, out_features=512, bias=False)
        (attn_drop): Dropout(p=0.0, inplace=False)
        (proj): Linear(in_features=256, out_features=256, bias=True)
        (proj_drop): Dropout(p=0.0, inplace=False)
        (pool): AvgPool2d(kernel_size=2, stride=2, padding=0)
        (sr): Conv2d(2048, 2048, kernel_size=(1, 1), stride=(1, 1))
        (norm): LayerNorm((2048,), eps=1e-05, elementwise_affine=True)
        (act): GELU()
      )
      (drop_path): DropPath(drop_prob=0.100)
      (mlp): Mlp(
        (fc1): Linear(in_features=256, out_features=1024, bias=True)
        (dwconv): DWConv(
          (dwconv): Conv2d(1024, 1024, kernel_size=(3, 3), stride=(1, 1), padding=(1, 1), groups=1024)
        )
        (act): GELU()
        (fc2): Linear(in_features=1024, out_features=256, bias=True)
        (drop): Dropout(p=0.0, inplace=False)
      )
    )
    (attn_c1): Block(
      (norm1): LayerNorm((128,), eps=1e-05, elementwise_affine=True)
      (norm2): LayerNorm((2048,), eps=1e-05, elementwise_affine=True)
      (norm3): LayerNorm((128,), eps=1e-05, elementwise_affine=True)
      (attn): CrossAttention(
        (q): Linear(in_features=128, out_features=128, bias=False)
        (kv): Linear(in_features=2048, out_features=256, bias=False)
        (attn_drop): Dropout(p=0.0, inplace=False)
        (proj): Linear(in_features=128, out_features=128, bias=True)
        (proj_drop): Dropout(p=0.0, inplace=False)
        (pool): AvgPool2d(kernel_size=1, stride=1, padding=0)
        (sr): Conv2d(2048, 2048, kernel_size=(1, 1), stride=(1, 1))
        (norm): LayerNorm((2048,), eps=1e-05, elementwise_affine=True)
        (act): GELU()
      )
      (drop_path): DropPath(drop_prob=0.100)
      (mlp): Mlp(
        (fc1): Linear(in_features=128, out_features=512, bias=True)
        (dwconv): DWConv(
          (dwconv): Conv2d(512, 512, kernel_size=(3, 3), stride=(1, 1), padding=(1, 1), groups=512)
        )
        (act): GELU()
        (fc2): Linear(in_features=512, out_features=128, bias=True)
        (drop): Dropout(p=0.0, inplace=False)
      )
    )
    (cat_key): CatKey(
      (sr_list): ModuleList(
        (0): Conv2d(640, 640, kernel_size=(1, 1), stride=(1, 1))
        (1): Conv2d(256, 256, kernel_size=(1, 1), stride=(1, 1))
        (2): Conv2d(128, 128, kernel_size=(1, 1), stride=(1, 1))
      )
      (pool_list): ModuleList(
        (0): AvgPool2d(kernel_size=2, stride=2, padding=0)
        (1): AvgPool2d(kernel_size=4, stride=4, padding=0)
        (2): AvgPool2d(kernel_size=8, stride=8, padding=0)
      )
    )
    (linear_fuse): ConvModule(
      (conv): Conv2d(2048, 128, kernel_size=(1, 1), stride=(1, 1), bias=False)
      (bn): _BatchNormXd(128, eps=1e-05, momentum=0.1, affine=True, track_running_stats=True)
      (activate): ReLU(inplace=True)
    )
    (linear_pred): Conv2d(128, 6, kernel_size=(1, 1), stride=(1, 1))
  )
  init_cfg={'type': 'Normal', 'std': 0.01, 'override': {'name': 'conv_seg'}}
  (auxiliary_head): ModuleList(
    (0): FCNHead(
      input_transform=None, ignore_index=255, align_corners=False
      (loss_decode): DiceLoss()
      (conv_seg): Conv2d(32, 6, kernel_size=(1, 1), stride=(1, 1))
      (dropout): Dropout2d(p=0.1, inplace=False)
      (convs): Sequential(
        (0): ConvModule(
          (conv): Conv2d(640, 32, kernel_size=(3, 3), stride=(1, 1), padding=(1, 1), bias=False)
          (bn): _BatchNormXd(32, eps=1e-05, momentum=0.1, affine=True, track_running_stats=True)
          (activate): ReLU(inplace=True)
        )
      )
    )
    init_cfg={'type': 'Normal', 'std': 0.01, 'override': {'name': 'conv_seg'}}
    (1): FCNHead(
      input_transform=None, ignore_index=255, align_corners=False
      (loss_decode): CrossEntropyLoss()
      (conv_seg): Conv2d(32, 6, kernel_size=(1, 1), stride=(1, 1))
      (dropout): Dropout2d(p=0.1, inplace=False)
      (convs): Sequential(
        (0): ConvModule(
          (conv): Conv2d(256, 32, kernel_size=(3, 3), stride=(1, 1), padding=(1, 1), bias=False)
          (bn): _BatchNormXd(32, eps=1e-05, momentum=0.1, affine=True, track_running_stats=True)
          (activate): ReLU(inplace=True)
        )
      )
    )
    init_cfg={'type': 'Normal', 'std': 0.01, 'override': {'name': 'conv_seg'}}
  )
)
2024-03-30 23:02:24,613 - mmseg - INFO - Loaded 5210 images
2024-03-30 23:02:27,652 - mmseg - INFO - Loaded 1401 images
…
